name: "Mid-vgg-cnn-m"
layers {
  name: "data"
  type: IMAGE_DATA
  top: "data"
  top: "label"
  include {
    phase: TRAIN
  }
  transform_param {
    mean_value: 104
    mean_value: 117
    mean_value: 123
  }
	image_data_param {
	source: "/home/admin/data/ior50/ior50n/sI_cum/run9/train_batch_07_filelist.txt"
	root_folder: "/home/admin/Ior50N/128/"
    batch_size: 256
	shuffle: true
  }
}
layers {
  name: "data"
  type: IMAGE_DATA
  top: "data"
  top: "label"
  include {
    phase: TEST
  }
  transform_param {
    mean_value: 104
    mean_value: 117
    mean_value: 123
  }
	image_data_param {
	source: "/home/admin/data/ior50/ior50n/sI_cum/run9/test_filelist.txt"
	root_folder: "/home/admin/Ior50N/128/"
    batch_size: 100
	shuffle: true
  }
}
layers {
  bottom: "data"
  top: "conv1"
  name: "conv1"
  type: CONVOLUTION
  convolution_param {
    num_output: 96
    kernel_size: 7
    stride: 2
    weight_filler {
      type: "gaussian"
      std: 0.01
    }
    bias_filler {
      type: "constant"
      value: 0
    }
  }
  blobs_lr: 1
  blobs_lr: 2
}
layers {
  bottom: "conv1"
  top: "conv1"
  name: "relu1"
  type: RELU
}
layers {
  bottom: "conv1"
  top: "norm1"
  name: "norm1"
  type: LRN
  lrn_param {
    local_size: 5
    alpha: 0.0005
    beta: 0.75
    k: 2
  }
}
layers {
  bottom: "norm1"
  top: "pool1"
  name: "pool1"
  type: POOLING
  pooling_param {
    pool: MAX
    kernel_size: 3
    stride: 2
  }
}
layers {
  bottom: "pool1"
  top: "conv2"
  name: "conv2"
  type: CONVOLUTION
  convolution_param {
    num_output: 256
    pad: 1
    kernel_size: 5
    stride: 2
    weight_filler {
      type: "gaussian"
      std: 0.01
    }
    bias_filler {
      type: "constant"
      value: 1
    }
  }
  blobs_lr: 1
  blobs_lr: 2
}
layers {
  bottom: "conv2"
  top: "conv2"
  name: "relu2"
  type: RELU
}
layers {
  bottom: "conv2"
  top: "norm2"
  name: "norm2"
  type: LRN
  lrn_param {
    local_size: 5
    alpha: 0.0005
    beta: 0.75
    k: 2
  }
}
layers {
  bottom: "norm2"
  top: "pool2"
  name: "pool2"
  type: POOLING
  pooling_param {
    pool: MAX
    kernel_size: 3
    stride: 2
  }
}
layers {
  bottom: "pool2"
  top: "conv3"
  name: "conv3"
  type: CONVOLUTION
  convolution_param {
    num_output: 512
    pad: 1
    kernel_size: 3
    weight_filler {
      type: "gaussian"
      std: 0.01
    }
    bias_filler {
      type: "constant"
      value: 0
    }
  }
  blobs_lr: 1
  blobs_lr: 2
}
layers {
  bottom: "conv3"
  top: "conv3"
  name: "relu3"
  type: RELU
}
layers {
  bottom: "conv3"
  top: "conv4"
  name: "conv4"
  type: CONVOLUTION
  convolution_param {
    num_output: 512
    pad: 1
    kernel_size: 3
    weight_filler {
      type: "gaussian"
      std: 0.01
    }
    bias_filler {
      type: "constant"
      value: 1
    }
  }
  blobs_lr: 1
  blobs_lr: 2
}
layers {
  bottom: "conv4"
  top: "conv4"
  name: "relu4"
  type: RELU
}
layers {
  bottom: "conv4"
  top: "conv5"
  name: "conv5"
  type: CONVOLUTION
  convolution_param {
    num_output: 512
    pad: 1
    kernel_size: 3
    weight_filler {
      type: "gaussian"
      std: 0.01
    }
    bias_filler {
      type: "constant"
      value: 1
    }
  }
  blobs_lr: 1
  blobs_lr: 2
}
layers {
  bottom: "conv5"
  top: "conv5"
  name: "relu5"
  type: RELU
}
layers {
  bottom: "conv5"
  top: "pool5"
  name: "pool5"
  type: POOLING
  pooling_param {
    pool: MAX
    kernel_size: 3
    stride: 2
  }
}
layers {
  bottom: "pool5"
  top: "mid_fc6"
  name: "mid_fc6"
  type: INNER_PRODUCT
  inner_product_param {
    num_output: 2048
    weight_filler {
      type: "gaussian"
      std: 0.005
    }
    bias_filler {
      type: "constant"
      value: 1
    }
  }
  blobs_lr: 10
  blobs_lr: 20
}
layers {
  bottom: "mid_fc6"
  top: "mid_fc6"
  name: "relu6"
  type: RELU
}
layers {
  bottom: "mid_fc6"
  top: "mid_fc6"
  name: "drop6"
  type: DROPOUT
  dropout_param {
    dropout_ratio: 0.5
  }
}
layers {
  bottom: "mid_fc6"
  top: "mid_fc7"
  name: "mid_fc7"
  type: INNER_PRODUCT
  blobs_lr: 10
  blobs_lr: 20
  inner_product_param {
    num_output: 2048
    weight_filler {
      type: "gaussian"
      std: 0.005
    }
    bias_filler {
      type: "constant"
      value: 1
    }
  }
}
layers {
  bottom: "mid_fc7"
  top: "mid_fc7"
  name: "relu7"
  type: RELU
}
layers {
  bottom: "mid_fc7"
  top: "mid_fc7"
  name: "drop7"
  type: DROPOUT
  dropout_param {
    dropout_ratio: 0.5
  }
}
layers {
  bottom: "mid_fc7"
  top: "mid_fc8"
  name: "mid_fc8"
  type: INNER_PRODUCT
  blobs_lr: 10
  blobs_lr: 20
  inner_product_param {
    num_output: 50
    weight_filler {
      type: "gaussian"
      std: 0.005
    }
    bias_filler {
      type: "constant"
      value: 1
    }
  }
}
layers {
  name: "accuracy"
  type: ACCURACY
  bottom: "mid_fc8"
  bottom: "label"
  top: "accuracy"
  include {
    phase: TEST
  }
}
layers {
  name: "loss"
  type: SOFTMAX_LOSS
  bottom: "mid_fc8"
  bottom: "label"
  top: "loss"
}
